…
2025-11-06 16:56:10,111 - INFO - --- Run complete ---
2025-11-06 16:56:10,111 - INFO - To view Optuna results: optuna-dashboard sqlite:///runs/optuna_study.db
2025-11-06 16:56:10,111 - INFO - To view TensorBoard logs: tensorboard --logdir runs/run_20251106-165254_['Area', 'Iso_distance', 'Iso_width']/
==========================================================================================
Layer (type:depth-idx)                   Output Shape              Param #
==========================================================================================
NeuralNetwork                            [64, 3]                   --
├─ModuleList: 1-9                        --                        (recursive)
│    └─Linear: 2-1                       [64, 152]                 1,520
│    └─GELU: 2-2                         [64, 152]                 --
├─Dropout: 1-2                           [64, 152]                 --
├─ModuleList: 1-9                        --                        (recursive)
│    └─Linear: 2-3                       [64, 152]                 23,256
│    └─GELU: 2-4                         [64, 152]                 --
├─Dropout: 1-4                           [64, 152]                 --
├─ModuleList: 1-9                        --                        (recursive)
│    └─Linear: 2-5                       [64, 152]                 23,256
│    └─GELU: 2-6                         [64, 152]                 --
├─Dropout: 1-6                           [64, 152]                 --
├─ModuleList: 1-9                        --                        (recursive)
│    └─Linear: 2-7                       [64, 152]                 23,256
│    └─GELU: 2-8                         [64, 152]                 --
├─Dropout: 1-8                           [64, 152]                 --
├─ModuleList: 1-9                        --                        (recursive)
│    └─Linear: 2-9                       [64, 3]                   459
==========================================================================================
Total params: 71,747
Trainable params: 71,747
Non-trainable params: 0
Total mult-adds (Units.MEGABYTES): 4.59
==========================================================================================
Input size (MB): 0.00
Forward/backward pass size (MB): 0.31
Params size (MB): 0.29
Estimated Total Size (MB): 0.60
…
