…
2025-11-04 21:58:18,009 - INFO - Early stopping at epoch 110.
2025-11-04 21:58:18,009 - INFO - Training complete. Evaluating on test set...
2025-11-04 21:58:18,347 - INFO - Final Test Loss (MSE): 0.000008
2025-11-04 21:58:18,347 - INFO - Inverting transforms and generating plots...
2025-11-04 21:58:18,348 - INFO - Calculating final metrics...
==========================================================================================
Layer (type:depth-idx)                   Output Shape              Param #
==========================================================================================
NeuralNetwork                            [64, 1]                   --
ModuleList: 1-7                        --                        (recursive)
    Linear: 2-1                       [64, 230]                 2,300
    GELU: 2-2                         [64, 230]                 --
Dropout: 1-2                           [64, 230]                 --
ModuleList: 1-7                        --                        (recursive)
    Linear: 2-3                       [64, 230]                 53,130
    GELU: 2-4                         [64, 230]                 --
Dropout: 1-4                           [64, 230]                 --
ModuleList: 1-7                        --                        (recursive)
    Linear: 2-5                       [64, 230]                 53,130
    GELU: 2-6                         [64, 230]                 --
Dropout: 1-6                           [64, 230]                 --
ModuleList: 1-7                        --                        (recursive)
    Linear: 2-7                       [64, 1]                   231
==========================================================================================
Total params: 108,791
Trainable params: 108,791
Non-trainable params: 0
Total mult-adds (Units.MEGABYTES): 6.96
==========================================================================================
Input size (MB): 0.00
Forward/backward pass size (MB): 0.35
Params size (MB): 0.44
Estimated Total Size (MB): 0.79
…
