…
2025-11-04 14:06:21,760 - INFO - Early stopping at epoch 157.
2025-11-04 14:06:21,760 - INFO - Training complete. Evaluating on test set...
2025-11-04 14:06:22,077 - INFO - Final Test Loss (SmoothL1): 0.000005
2025-11-04 14:06:22,077 - INFO - Inverting transforms and generating plots...
2025-11-04 14:06:22,078 - INFO - Calculating final metrics...
==========================================================================================
Layer (type:depth-idx)                   Output Shape              Param #
==========================================================================================
NeuralNetwork                            [64, 1]                   --
ModuleList: 1-7                        --                        (recursive)
    Linear: 2-1                       [64, 211]                 2,110
    LeakyReLU: 2-2                    [64, 211]                 --
Dropout: 1-2                           [64, 211]                 --
ModuleList: 1-7                        --                        (recursive)
    Linear: 2-3                       [64, 211]                 44,732
    LeakyReLU: 2-4                    [64, 211]                 --
Dropout: 1-4                           [64, 211]                 --
ModuleList: 1-7                        --                        (recursive)
    Linear: 2-5                       [64, 211]                 44,732
    LeakyReLU: 2-6                    [64, 211]                 --
Dropout: 1-6                           [64, 211]                 --
ModuleList: 1-7                        --                        (recursive)
    Linear: 2-7                       [64, 1]                   212
==========================================================================================
Total params: 91,786
Trainable params: 91,786
Non-trainable params: 0
Total mult-adds (Units.MEGABYTES): 5.87
==========================================================================================
Input size (MB): 0.00
Forward/backward pass size (MB): 0.32
Params size (MB): 0.37
Estimated Total Size (MB): 0.69
…
