…
2025-11-07 19:03:35,814 - INFO - Model configuration saved to runs/run_20251107-184742_Iso_width/final_model/model_config.json
2025-11-07 19:03:35,814 - INFO - --- Run complete ---
2025-11-07 19:03:35,814 - INFO - To view Optuna results: optuna-dashboard sqlite:///runs/optuna_study.db
2025-11-07 19:03:35,814 - INFO - To view TensorBoard logs: tensorboard --logdir runs/run_20251107-184742_Iso_width/
==========================================================================================
Layer (type:depth-idx)                   Output Shape              Param #
==========================================================================================
NeuralNetwork                            [64, 1]                   --
├─ModuleList: 1-5                        --                        (recursive)
│    └─Linear: 2-1                       [64, 112]                 1,120
│    └─GELU: 2-2                         [64, 112]                 --
├─Dropout: 1-2                           [64, 112]                 --
├─ModuleList: 1-5                        --                        (recursive)
│    └─Linear: 2-3                       [64, 112]                 12,656
│    └─GELU: 2-4                         [64, 112]                 --
├─Dropout: 1-4                           [64, 112]                 --
├─ModuleList: 1-5                        --                        (recursive)
│    └─Linear: 2-5                       [64, 1]                   113
==========================================================================================
Total params: 13,889
Trainable params: 13,889
Non-trainable params: 0
Total mult-adds (Units.MEGABYTES): 0.89
==========================================================================================
Input size (MB): 0.00
Forward/backward pass size (MB): 0.12
Params size (MB): 0.06
Estimated Total Size (MB): 0.17
…
