…
2025-11-05 05:16:37,985 - INFO - Final model saved to runs/run_20251104-144230_['Area']/final_model/best_model.pt
2025-11-05 05:16:37,985 - INFO - --- Run complete ---
2025-11-05 05:16:37,985 - INFO - To view Optuna results: optuna-dashboard sqlite:///runs/optuna_study.db
2025-11-05 05:16:37,985 - INFO - To view TensorBoard logs: tensorboard --logdir runs/run_20251104-144230_['Area']/
==========================================================================================
Layer (type:depth-idx)                   Output Shape              Param #
==========================================================================================
NeuralNetwork                            [64, 1]                   --
ModuleList: 1-7                        --                        (recursive)
    Linear: 2-1                       [64, 230]                 2,300
    GELU: 2-2                         [64, 230]                 --
Dropout: 1-2                           [64, 230]                 --
ModuleList: 1-7                        --                        (recursive)
    Linear: 2-3                       [64, 230]                 53,130
    GELU: 2-4                         [64, 230]                 --
Dropout: 1-4                           [64, 230]                 --
ModuleList: 1-7                        --                        (recursive)
    Linear: 2-5                       [64, 230]                 53,130
    GELU: 2-6                         [64, 230]                 --
Dropout: 1-6                           [64, 230]                 --
ModuleList: 1-7                        --                        (recursive)
    Linear: 2-7                       [64, 1]                   231
==========================================================================================
Total params: 108,791
Trainable params: 108,791
Non-trainable params: 0
Total mult-adds (Units.MEGABYTES): 6.96
==========================================================================================
Input size (MB): 0.00
Forward/backward pass size (MB): 0.35
Params size (MB): 0.44
Estimated Total Size (MB): 0.79
…
